…
        "colab": {
          "base_uri": "https://localhost:8080/",
          "height": 1000
        }
      },
      "source": [
        "model.summary()"
      ],
      "execution_count": 0,
      "outputs": [
        {
          "output_type": "stream",
          "text": [
            "Model: \"sequential_14\"\n",
            "_________________________________________________________________\n",
            "Layer (type)                 Output Shape              Param #   \n",
            "=================================================================\n",
            "conv2d_193 (Conv2D)          (None, 608, 608, 32)      896       \n",
            "_________________________________________________________________\n",
            "batch_normalization_85 (Batc (None, 608, 608, 32)      128       \n",
            "_________________________________________________________________\n",
            "leaky_re_lu_17 (LeakyReLU)   (None, 608, 608, 32)      0         \n",
            "_________________________________________________________________\n",
            "max_pooling2d_109 (MaxPoolin (None, 304, 304, 32)      0         \n",
            "_________________________________________________________________\n",
            "conv2d_194 (Conv2D)          (None, 304, 304, 64)      18496     \n",
            "_________________________________________________________________\n",
            "batch_normalization_86 (Batc (None, 304, 304, 64)      256       \n",
            "_________________________________________________________________\n",
            "leaky_re_lu_18 (LeakyReLU)   (None, 304, 304, 64)      0         \n",
            "_________________________________________________________________\n",
            "max_pooling2d_110 (MaxPoolin (None, 152, 152, 64)      0         \n",
            "_________________________________________________________________\n",
            "conv2d_195 (Conv2D)          (None, 152, 152, 128)     73856     \n",
            "_________________________________________________________________\n",
            "batch_normalization_87 (Batc (None, 152, 152, 128)     512       \n",
            "_________________________________________________________________\n",
            "leaky_re_lu_19 (LeakyReLU)   (None, 152, 152, 128)     0         \n",
            "_________________________________________________________________\n",
            "max_pooling2d_111 (MaxPoolin (None, 76, 76, 128)       0         \n",
            "_________________________________________________________________\n",
            "conv2d_196 (Conv2D)          (None, 76, 76, 64)        73792     \n",
            "_________________________________________________________________\n",
            "batch_normalization_88 (Batc (None, 76, 76, 64)        256       \n",
            "_________________________________________________________________\n",
            "leaky_re_lu_20 (LeakyReLU)   (None, 76, 76, 64)        0         \n",
            "_________________________________________________________________\n",
            "max_pooling2d_112 (MaxPoolin (None, 38, 38, 64)        0         \n",
            "_________________________________________________________________\n",
            "conv2d_197 (Conv2D)          (None, 38, 38, 128)       73856     \n",
            "_________________________________________________________________\n",
            "batch_normalization_89 (Batc (None, 38, 38, 128)       512       \n",
            "_________________________________________________________________\n",
            "leaky_re_lu_21 (LeakyReLU)   (None, 38, 38, 128)       0         \n",
            "_________________________________________________________________\n",
            "max_pooling2d_113 (MaxPoolin (None, 19, 19, 128)       0         \n",
            "_________________________________________________________________\n",
            "conv2d_198 (Conv2D)          (None, 19, 19, 256)       295168    \n",
            "_________________________________________________________________\n",
            "batch_normalization_90 (Batc (None, 19, 19, 256)       1024      \n",
            "_________________________________________________________________\n",
            "leaky_re_lu_22 (LeakyReLU)   (None, 19, 19, 256)       0         \n",
            "_________________________________________________________________\n",
            "max_pooling2d_114 (MaxPoolin (None, 9, 9, 256)         0         \n",
            "_________________________________________________________________\n",
            "conv2d_199 (Conv2D)          (None, 9, 9, 128)         295040    \n",
            "_________________________________________________________________\n",
            "batch_normalization_91 (Batc (None, 9, 9, 128)         512       \n",
            "_________________________________________________________________\n",
            "leaky_re_lu_23 (LeakyReLU)   (None, 9, 9, 128)         0         \n",
            "_________________________________________________________________\n",
            "max_pooling2d_115 (MaxPoolin (None, 4, 4, 128)         0         \n",
            "_________________________________________________________________\n",
            "conv2d_200 (Conv2D)          (None, 4, 4, 256)         295168    \n",
            "_________________________________________________________________\n",
            "batch_normalization_92 (Batc (None, 4, 4, 256)         1024      \n",
            "_________________________________________________________________\n",
            "leaky_re_lu_24 (LeakyReLU)   (None, 4, 4, 256)         0         \n",
            "_________________________________________________________________\n",
            "max_pooling2d_116 (MaxPoolin (None, 2, 2, 256)         0         \n",
            "_________________________________________________________________\n",
            "conv2d_201 (Conv2D)          (None, 2, 2, 512)         1180160   \n",
            "_________________________________________________________________\n",
            "batch_normalization_93 (Batc (None, 2, 2, 512)         2048      \n",
            "_________________________________________________________________\n",
            "leaky_re_lu_25 (LeakyReLU)   (None, 2, 2, 512)         0         \n",
            "_________________________________________________________________\n",
            "max_pooling2d_117 (MaxPoolin (None, 1, 1, 512)         0         \n",
            "=================================================================\n",
            "Total params: 2,312,704\n",
            "Trainable params: 2,309,568\n",
            "Non-trainable params: 3,136\n",
            "_________________________________________________________________\n"
          ],
          "name": "stdout"
        }
      ]
    },
    {
      "cell_type": "code",
…
        "colab": {
          "base_uri": "https://localhost:8080/",
          "height": 1000
        }
      },
      "source": [
        "model.summary()"
      ],
      "execution_count": 0,
      "outputs": [
        {
          "output_type": "stream",
          "text": [
            "Model: \"sequential_23\"\n",
            "_________________________________________________________________\n",
            "Layer (type)                 Output Shape              Param #   \n",
            "=================================================================\n",
            "conv2d_362 (Conv2D)          (None, 78, 58, 64)        1792      \n",
            "_________________________________________________________________\n",
            "conv2d_363 (Conv2D)          (None, 76, 56, 32)        18464     \n",
            "_________________________________________________________________\n",
            "max_pooling2d_181 (MaxPoolin (None, 75, 55, 32)        0         \n",
            "_________________________________________________________________\n",
            "batch_normalization_150 (Bat (None, 75, 55, 32)        128       \n",
            "_________________________________________________________________\n",
            "conv2d_364 (Conv2D)          (None, 71, 51, 32)        25632     \n",
            "_________________________________________________________________\n",
            "conv2d_365 (Conv2D)          (None, 67, 47, 32)        25632     \n",
            "_________________________________________________________________\n",
            "max_pooling2d_182 (MaxPoolin (None, 66, 46, 32)        0         \n",
            "_________________________________________________________________\n",
            "conv2d_366 (Conv2D)          (None, 64, 44, 32)        9248      \n",
            "_________________________________________________________________\n",
            "conv2d_367 (Conv2D)          (None, 60, 40, 32)        25632     \n",
            "_________________________________________________________________\n",
            "max_pooling2d_183 (MaxPoolin (None, 59, 39, 32)        0         \n",
            "_________________________________________________________________\n",
            "batch_normalization_151 (Bat (None, 59, 39, 32)        128       \n",
            "_________________________________________________________________\n",
            "conv2d_368 (Conv2D)          (None, 57, 37, 32)        9248      \n",
            "_________________________________________________________________\n",
            "conv2d_369 (Conv2D)          (None, 53, 33, 32)        25632     \n",
            "_________________________________________________________________\n",
            "max_pooling2d_184 (MaxPoolin (None, 52, 32, 32)        0         \n",
            "_________________________________________________________________\n",
            "batch_normalization_152 (Bat (None, 52, 32, 32)        128       \n",
            "_________________________________________________________________\n",
            "conv2d_370 (Conv2D)          (None, 50, 30, 32)        9248      \n",
            "_________________________________________________________________\n",
            "conv2d_371 (Conv2D)          (None, 46, 26, 32)        25632     \n",
            "_________________________________________________________________\n",
            "max_pooling2d_185 (MaxPoolin (None, 45, 25, 32)        0         \n",
            "_________________________________________________________________\n",
            "spatial_dropout2d_7 (Spatial (None, 45, 25, 32)        0         \n",
            "_________________________________________________________________\n",
            "batch_normalization_153 (Bat (None, 45, 25, 32)        128       \n",
            "_________________________________________________________________\n",
            "conv2d_372 (Conv2D)          (None, 41, 23, 32)        15392     \n",
            "_________________________________________________________________\n",
            "conv2d_373 (Conv2D)          (None, 37, 19, 32)        25632     \n",
            "_________________________________________________________________\n",
            "max_pooling2d_186 (MaxPoolin (None, 36, 18, 32)        0         \n",
            "_________________________________________________________________\n",
            "batch_normalization_154 (Bat (None, 36, 18, 32)        128       \n",
            "_________________________________________________________________\n",
            "conv2d_374 (Conv2D)          (None, 32, 16, 128)       61568     \n",
            "_________________________________________________________________\n",
            "conv2d_375 (Conv2D)          (None, 28, 12, 512)       1638912   \n",
            "_________________________________________________________________\n",
            "max_pooling2d_187 (MaxPoolin (None, 27, 11, 512)       0         \n",
            "_________________________________________________________________\n",
            "batch_normalization_155 (Bat (None, 27, 11, 512)       2048      \n",
            "_________________________________________________________________\n",
            "conv2d_376 (Conv2D)          (None, 23, 9, 512)        3932672   \n",
            "_________________________________________________________________\n",
            "conv2d_377 (Conv2D)          (None, 19, 5, 64)         819264    \n",
            "_________________________________________________________________\n",
            "max_pooling2d_188 (MaxPoolin (None, 18, 4, 64)         0         \n",
            "_________________________________________________________________\n",
            "flatten_21 (Flatten)         (None, 4608)              0         \n",
            "_________________________________________________________________\n",
            "dense_70 (Dense)             (None, 1600)              7374400   \n",
            "_________________________________________________________________\n",
            "dense_71 (Dense)             (None, 1000)              1601000   \n",
            "_________________________________________________________________\n",
            "dense_72 (Dense)             (None, 4)                 4004      \n",
            "=================================================================\n",
            "Total params: 15,651,692\n",
            "Trainable params: 15,650,348\n",
            "Non-trainable params: 1,344\n",
            "_________________________________________________________________\n"
          ],
          "name": "stdout"
        }
      ]
    },
    {
      "cell_type": "code",
…
